Tests/DeepSeekOCR2Tests/Fixtures/deepseekv2_tiny/parity.safetensors (safetensors, 4288 bytes, 2 tensors)

expected_logits f4 [1, 8, 128]
00000000: 74e5 cf3d ed1a 533d 7ee1 273e 612d bf3d
00000010: 79e9 8e3d 6256 f83d 6ab2 eb3c f2d2 2fbe
00000020: bce8 38bc 16eb 87bd e68d 873e aac4 51be
00000030: b8ae 953d 0f66 04be 27c4 aa3c 769d 36bb
00000040: e478 a43d d247 14be 7267 113e 35f1 3abc
00000050: 81f0 8e3d c382 a13c d355 5bbe abf1 0f3e
00000060: b89e 87bd f632 8ebe 1ee1 c937 26d1 953e
00000070: 4fe5 7fbd c79b 1abd 6a08 b93c 4790 e6bc
00000080: 0498 9c3d 29bb d93d 64de cfbb 7525 773e
00000090: a574 1d3e 2505 913e 98d9 183c 8c7c d5bc
000000a0: c1f5 80be c59a 1fbe f354 46bd 5f40 a4bd
000000b0: 182a 9e3e 69a9 57bd 9a95 fb3b 0a46 663e
000000c0: 095c 4fbe 1e1e 43be 6dd1 17be c296 aa3b
000000d0: f52b 21be 6ede 893d cff9 28bd 5ceb e33d
000000e0: b348 22bd 91d1 603d 7d98 703c 8c22 833e
000000f0: e8e7 81bd 007f 4f3b 1ad9 223b f4e0 98bd
00000100: 361e b63c b23b fcbd 3b12 1f3d 6895 d3bd
00000110: ceaa 113e 2a21 c8be b628 d3bd 3358 523e
00000120: cc8a 073d c9bb aabc 445c ec3d 80e9 a33c
00000130: 9d8d de3d 8984 39bd 7994 c5bc 05ab 76bc
00000140: b54c 133d 4867 5b3d 1368 2b3e ce59 60bd
00000150: 5cac 293c c2aa 64bd c4b6 58bd b263 a13d
00000160: 7307 ef3c 5632 ef3c 0b6a 52be 2d2d a9bd
00000170: 3fa0 293e b585 8bbe f6d9 9c3b 982a 20bd
00000180: 355a a33e 6070 2a3e 5bfb b53d 819d 09be
00000190: 60ef f1bd 2ebe 803d 0336 8f3e 7665 53bd
000001a0: 89d5 84be c449 7c3c 8435 8d3d dbf5 6abd
000001b0: 29f2 32bd cac8 38be 82d6 3a3e d5d4 f53c
000001c0: 0a13 9dbc 5216 ca3d 25de e8bd 0d97 fabc
000001d0: a47b 91bd ee79 903d 2fae a93c a90b a23d
000001e0: 83af f2bd 289c 42bd a01a 1f3d 7c98 46be
000001f0: c5ab 893e 073b ee3d 123d 583c 3c2c 10be
00000200: f0b7 ae3d 6010 963d 45e9 363e 128b 1a3e
00000210: 8496 b83d 276e 2e3e 41de 5e3c f3ea f73c
00000220: 1c28 31bd 46a3 9fbd 0c80 d43d efdb 7dbd
00000230: e86f d93c 8757 4cbe dc9d c33d 8437 8ebe
00000240: 8c82 8f3d 796b 78bd 8b93 1f3e bdae 5ebc
00000250: 61f8 543d 19f1 353d 291e 21be 1e33 c33d
00000260: 5ffb 0f3d e1b6 98be 644a 2a3e 3bc8 473e
00000270: 3554 52bc e79a c03c 8d75 a1ba b777 ea3d
00000280: 1992 bb3d 68c9 313e 1c1d babc adf8 5f3e
00000290: e6e4 5d3d 16de f93d 8dc4 8c3d ae1c 9ebd
000002a0: 8536 04bd cdae 78bd 577b 1e3d 2c04 5fbd
000002b0: 61f1 9b3e a78c 653d a5c8 00bd 6415 f53a
000002c0: 05ab 0bbe aa17 eb3c c775 babd 83b2 a2bd
000002d0: 3cdd c5bd 43b3 2c3d e724 db3d 1c13 f4bd
000002e0: a4a3 1fbe 5ed7 f5bc b3f8 053e fcae b23e
000002f0: f96e 9cbd 940c 0abc 62f5 1e3e 0006 b5bd
00000300: 4100 453b d0b9 90bd db39 e8bd 7e02 81bd
00000310: 79d5 1a3e b896 82be 8701 f73c 0e0e ff3d
00000320: 4570 ddbd 56db d23d 66d2 383d 7de0 0dbd
00000330: 60a4 073e 04b2 8bbd a208 813d 7a7e 32bc
00000340: 3548 53bc aa21 433c 3dc1 923d c872 66bd
00000350: bd31 c33c 19b1 04be 2ed0 9dbc f7fc 58bc
00000360: d466 7dbd c2e2 b03c e506 d1bd df5b e6bd
00000370: 14ef 023e 11e4 9cbc 8ac2 08be d313 ecbd
00000380: 56ca dd3e 7eba 213e 533e 203e fc2a 01be
00000390: 487f ae3d abfd a83d 210f 843e a6b1 6bbe
000003a0: c00e 40be fefd 22be 049e c33c 6af5 08bd
000003b0: 92be 8ebd 03cf 0ebe 6dc6 273e 3c64 4a3d
000003c0: ce82 3dbd c1a5 9e3d 032b 85bc 3b08 af3d
000003d0: fd78 7b3d 2714 23bc d48c 253e dc74 49bd
000003e0: 0801 f5bc 83e2 59bd 0eb6 043d 0987 57bd
000003f0: 989e 903e a217 083e e0ab 453c 97a8 3dbe
0.101511866 0.05153935 0.16394612 0.09334827 0.06978125 0.12125851 0.028771598 -0.17170313
-0.011285957 -0.06636636 0.26475447 -0.20485178 0.073087156 -0.12929557 0.020845486 -0.002786485
0.080308706 -0.14480522 0.14199618 -0.011410047 0.06979466 0.019715672 -0.21419458 0.14057033
-0.0662207 -0.27773255 2.4065896e-05 0.2926113 -0.062474545 -0.037746217 0.02258702 -0.028144969
0.07646182 0.10631401 -0.0063436497 0.24135382 0.15376528 0.28324237 0.009329222 -0.026060365
-0.25187495 -0.15586384 -0.048420858 -0.0802009 0.3089149 -0.052651796 0.007677746 0.22487655
-0.20249952 -0.19054458 -0.14825983 0.00520596 -0.15739425 0.06731878 -0.04125386 0.111288756
-0.039620113 0.054887358 0.014684794 0.25612295 -0.06343061 0.0031661391 0.002484864 -0.074647814
0.022231203 -0.123160735 0.038835745 -0.10331231 0.14225313 -0.39087802 -0.10310499 0.20541458
0.03309135 -0.020841496 0.11541036 0.020008802 0.10866854 -0.04529241 -0.024118649 -0.015055423
0.035961825 0.053565294 0.1673892 -0.054773144 0.010356035 -0.05582691 -0.052908674 0.078803435
0.029178357 0.029198807 -0.20548265 -0.0826057 0.16565035 -0.27250448 0.004786725 -0.03910312
0.3190476 0.1664443 0.08885833 -0.13438989 -0.11813235 0.06286274 0.27970895 -0.051610433
-0.25944164 0.0153984465 0.06894973 -0.057363372 -0.043687973 -0.18045345 0.1824589 0.030008713
-0.019174118 0.098675385 -0.11370496 -0.030589605 -0.07103661 0.07054506 0.02071294 0.0791238
-0.118498825 -0.047512203 0.03884375 -0.19394106 0.26888862 0.11632352 0.013198154 -0.14079374
0.08531177 0.07327342 0.17862423 0.15092114 0.090130836 0.17034207 0.013602794 0.0302634
-0.043251142 -0.07794814 0.103759855 -0.061977323 0.026542619 -0.19955264 0.09551594 -0.2777673
0.07007322 -0.06064937 0.15583627 -0.013591466 0.051994685 0.04441938 -0.15734161 0.09531234
0.035151836 -0.29827026 0.1662994 0.19509976 -0.012837459 0.023511363 -0.0012318358 0.11448615
0.09158725 0.17361987 -0.022718959 0.21872206 0.054173373 0.12200563 0.068734266 -0.07720314
-0.032278556 -0.060713578 0.038691845 -0.054447338 0.30457595 0.05604234 -0.03144135 0.0018698392
-0.13639458 0.028697807 -0.091044955 -0.07944205 -0.09661338 0.042163145 0.10700398 -0.11917707
-0.15589768 -0.030009922 0.13083152 0.34899127 -0.07638354 -0.00842585 0.15523294 -0.08839035
0.0030059966 -0.07066691 -0.1133916 -0.062993035 0.15120496 -0.25505614 0.030152095 0.124538526
-0.10812429 0.10295741 0.045122527 -0.034637917 0.13246298 -0.06821063 0.06300475 -0.010894412
-0.0128956335 0.011909882 0.071657635 -0.056261808 0.023827428 -0.12958182 -0.019264307 -0.013243905
-0.061865643 0.021592502 -0.10206393 -0.11247992 0.12786514 -0.01915172 -0.13355461 -0.11527219
0.43318433 0.15793797 0.15648775 -0.12614053 0.08520371 0.08251508 0.25792792 -0.23016986
-0.18755627 -0.15917203 0.023879059 -0.03343717 -0.06969942 -0.13946156 0.16384287 0.049411997
-0.046267323 0.07746459 -0.016255861 0.08546492 0.06139468 -0.009953535 0.16167003 -0.04918371
-0.029907718 -0.053194534 0.032400183 -0.052619014 0.28245997 0.13290265 0.012064904 -0.18521343

input_ids i4 [1, 8]
00000000: 0b00 0000 4800 0000 7c00 0000 1500 0000
00000010: 5000 0000 1400 0000 3d00 0000 5800 0000
11 72 124 21 80 20 61 88
