Tests/DeepSeekOCR2Tests/Fixtures/deepseekv2_tiny/parity_inject.safetensors (safetensors, 5488 bytes, 4 tensors)

expected_logits f4 [1, 8, 128]
000000 74 e5 cf 3d ed 1a 53 3d 7e e1 27 3e 61 2d bf 3d
       0.101511866 0.05153935 0.16394612 0.09334827
000010 79 e9 8e 3d 62 56 f8 3d 6a b2 eb 3c f2 d2 2f be
       0.06978125 0.12125851 0.028771598 -0.17170313
000020 bc e8 38 bc 16 eb 87 bd e6 8d 87 3e aa c4 51 be
       -0.011285957 -0.06636636 0.26475447 -0.20485178
000030 b8 ae 95 3d 0f 66 04 be 27 c4 aa 3c 76 9d 36 bb
       0.073087156 -0.12929557 0.020845486 -0.002786485
000040 e4 78 a4 3d d2 47 14 be 72 67 11 3e 35 f1 3a bc
       0.080308706 -0.14480522 0.14199618 -0.011410047
000050 81 f0 8e 3d c3 82 a1 3c d3 55 5b be ab f1 0f 3e
       0.06979466 0.019715672 -0.21419458 0.14057033
000060 b8 9e 87 bd f6 32 8e be 1e e1 c9 37 26 d1 95 3e
       -0.0662207 -0.27773255 2.4065896e-05 0.2926113
000070 4f e5 7f bd c7 9b 1a bd 6a 08 b9 3c 47 90 e6 bc
       -0.062474545 -0.037746217 0.02258702 -0.028144969
000080 04 98 9c 3d 29 bb d9 3d 64 de cf bb 75 25 77 3e
       0.07646182 0.10631401 -0.0063436497 0.24135382
000090 a5 74 1d 3e 25 05 91 3e 98 d9 18 3c 8c 7c d5 bc
       0.15376528 0.28324237 0.009329222 -0.026060365
0000a0 c1 f5 80 be c5 9a 1f be f3 54 46 bd 5f 40 a4 bd
       -0.25187495 -0.15586384 -0.048420858 -0.0802009
0000b0 18 2a 9e 3e 69 a9 57 bd 9a 95 fb 3b 0a 46 66 3e
       0.3089149 -0.052651796 0.007677746 0.22487655
0000c0 09 5c 4f be 1e 1e 43 be 6d d1 17 be c2 96 aa 3b
       -0.20249952 -0.19054458 -0.14825983 0.00520596
0000d0 f5 2b 21 be 6e de 89 3d cf f9 28 bd 5c eb e3 3d
       -0.15739425 0.06731878 -0.04125386 0.111288756
0000e0 b3 48 22 bd 91 d1 60 3d 7d 98 70 3c 8c 22 83 3e
       -0.039620113 0.054887358 0.014684794 0.25612295
0000f0 e8 e7 81 bd 00 7f 4f 3b 1a d9 22 3b f4 e0 98 bd
       -0.06343061 0.0031661391 0.002484864 -0.074647814
000100 36 1e b6 3c b2 3b fc bd 3b 12 1f 3d 68 95 d3 bd
       0.022231203 -0.123160735 0.038835745 -0.10331231
000110 ce aa 11 3e 2a 21 c8 be b6 28 d3 bd 33 58 52 3e
       0.14225313 -0.39087802 -0.10310499 0.20541458
000120 cc 8a 07 3d c9 bb aa bc 44 5c ec 3d 80 e9 a3 3c
       0.03309135 -0.020841496 0.11541036 0.020008802
000130 9d 8d de 3d 89 84 39 bd 79 94 c5 bc 05 ab 76 bc
       0.10866854 -0.04529241 -0.024118649 -0.015055423
000140 b5 4c 13 3d 48 67 5b 3d 13 68 2b 3e ce 59 60 bd
       0.035961825 0.053565294 0.1673892 -0.054773144
000150 5c ac 29 3c c2 aa 64 bd c4 b6 58 bd b2 63 a1 3d
       0.010356035 -0.05582691 -0.052908674 0.078803435
000160 73 07 ef 3c 56 32 ef 3c 0b 6a 52 be 2d 2d a9 bd
       0.029178357 0.029198807 -0.20548265 -0.0826057
000170 3f a0 29 3e b5 85 8b be f6 d9 9c 3b 98 2a 20 bd
       0.16565035 -0.27250448 0.004786725 -0.03910312
000180 35 5a a3 3e 60 70 2a 3e 5b fb b5 3d 81 9d 09 be
       0.3190476 0.1664443 0.08885833 -0.13438989
000190 60 ef f1 bd 2e be 80 3d 03 36 8f 3e 76 65 53 bd
       -0.11813235 0.06286274 0.27970895 -0.051610433
0001a0 89 d5 84 be c4 49 7c 3c 84 35 8d 3d db f5 6a bd
       -0.25944164 0.0153984465 0.06894973 -0.057363372
0001b0 29 f2 32 bd ca c8 38 be 82 d6 3a 3e d5 d4 f5 3c
       -0.043687973 -0.18045345 0.1824589 0.030008713
0001c0 0a 13 9d bc 52 16 ca 3d 25 de e8 bd 0d 97 fa bc
       -0.019174118 0.098675385 -0.11370496 -0.030589605
0001d0 a4 7b 91 bd ee 79 90 3d 2f ae a9 3c a9 0b a2 3d
       -0.07103661 0.07054506 0.02071294 0.0791238
0001e0 83 af f2 bd 28 9c 42 bd a0 1a 1f 3d 7c 98 46 be
       -0.118498825 -0.047512203 0.03884375 -0.19394106
0001f0 c5 ab 89 3e 07 3b ee 3d 12 3d 58 3c 3c 2c 10 be
       0.26888862 0.11632352 0.013198154 -0.14079374
000200 f0 b7 ae 3d 60 10 96 3d 44 e9 36 3e 11 8b 1a 3e
       0.08531177 0.07327342 0.17862421 0.15092112
000210 84 96 b8 3d 28 6e 2e 3e 37 de 5e 3c f9 ea f7 3c
       0.090130836 0.17034209 0.013602785 0.03026341
000220 1e 28 31 bd 47 a3 9f bd 0b 80 d4 3d f2 db 7d bd
       -0.04325115 -0.077948146 0.10375985 -0.061977334
000230 e9 6f d9 3c 87 57 4c be e1 9d c3 3d 84 37 8e be
       0.02654262 -0.19955264 0.095515974 -0.2777673
000240 8e 82 8f 3d 7d 6b 78 bd 8a 93 1f 3e d2 ae 5e bc
       0.07007323 -0.060649384 0.15583625 -0.013591485
000250 62 f8 54 3d 19 f1 35 3d 29 1e 21 be 1f 33 c3 3d
       0.05199469 0.04441938 -0.15734161 0.09531235
000260 63 fb 0f 3d e0 b6 98 be 64 4a 2a 3e 39 c8 47 3e
       0.03515185 -0.29827023 0.1662994 0.19509973
000270 24 54 52 bc e9 9a c0 3c 48 75 a1 ba b9 77 ea 3d
       -0.0128374435 0.023511367 -0.0012318278 0.114486165
000280 1b 92 bb 3d 68 c9 31 3e 19 1d ba bc ae f8 5f 3e
       0.09158727 0.17361987 -0.022718953 0.21872208
000290 e9 e4 5d 3d 16 de f9 3d 8c c4 8c 3d ac 1c 9e bd
       0.054173384 0.12200563 0.06873426 -0.077203125
0002a0 84 36 04 bd d4 ae 78 bd 51 7b 1e 3d 29 04 5f bd
       -0.032278553 -0.060713604 0.038691822 -0.054447327
0002b0 60 f1 9b 3e a4 8c 65 3d a3 c8 00 bd 56 15 f5 3a
       0.30457592 0.05604233 -0.031441342 0.0018698375
0002c0 04 ab 0b be af 17 eb 3c c6 75 ba bd 84 b2 a2 bd
       -0.13639456 0.028697817 -0.09104495 -0.079442054
0002d0 3f dd c5 bd 44 b3 2c 3d e7 24 db 3d 1b 13 f4 bd
       -0.0966134 0.04216315 0.10700398 -0.119177066
0002e0 a3 a3 1f be 59 d7 f5 bc b4 f8 05 3e fa ae b2 3e
       -0.15589766 -0.030009912 0.13083154 0.34899122
0002f0 f9 6e 9c bd a7 0c 0a bc 63 f5 1e 3e ff 05 b5 bd
       -0.07638354 -0.008425868 0.15523295 -0.08839034
000300 e2 ff 44 3b d0 b9 90 bd db 39 e8 bd 7e 02 81 bd
       0.0030059745 -0.07066691 -0.1133916 -0.062993035
000310 79 d5 1a 3e b8 96 82 be 8b 01 f7 3c 10 0e ff 3d
       0.15120496 -0.25505614 0.030152103 0.12453854
000320 47 70 dd bd 56 db d2 3d 6f d2 38 3d 7c e0 0d bd
       -0.10812431 0.10295741 0.04512256 -0.034637913
000330 61 a4 07 3e 02 b2 8b bd a2 08 81 3d 76 7e 32 bc
       0.132463 -0.06821062 0.06300475 -0.010894408
000340 54 48 53 bc a4 21 43 3c 3f c1 92 3d c5 72 66 bd
       -0.012895662 0.011909876 0.07165765 -0.056261797
000350 b3 31 c3 3c 1a b1 04 be 29 d0 9d bc fd fc 58 bc
       0.02382741 -0.12958184 -0.019264298 -0.013243911
000360 d2 66 7d bd c3 e2 b0 3c e0 06 d1 bd df 5b e6 bd
       -0.061865635 0.021592503 -0.102063894 -0.11247992
000370 16 ef 02 3e 0e e4 9c bc 88 c2 08 be d2 13 ec bd
       0.12786517 -0.019151714 -0.13355458 -0.11527218
000380 56 ca dd 3e 7b ba 21 3e 53 3e 20 3e fd 2a 01 be
       0.43318433 0.15793793 0.15648775 -0.12614055
000390 4c 7f ae 3d ab fd a8 3d 21 0f 84 3e a6 b1 6b be
       0.08520374 0.08251508 0.25792792 -0.23016986
0003a0 bf 0e 40 be fc fd 22 be 03 9e c3 3c 6a f5 08 bd
       -0.18755625 -0.159172 0.023879057 -0.03343717
0003b0 91 be 8e bd 04 cf 0e be 6c c6 27 3e 3a 64 4a 3d
       -0.069699414 -0.13946158 0.16384286 0.04941199
0003c0 cd 82 3d bd bf a5 9e 3d f8 2a 85 bc 3b 08 af 3d
       -0.04626732 0.07746457 -0.01625584 0.08546492
0003d0 fd 78 7b 3d 2e 14 23 bc d7 8c 25 3e e0 74 49 bd
       0.06139468 -0.009953542 0.16167007 -0.049183726
0003e0 f7 00 f5 bc 7c e2 59 bd 10 b6 04 3d 01 87 57 bd
       -0.029907687 -0.053194508 0.03240019 -0.052618984
0003f0 97 9e 90 3e a1 17 08 3e e1 ab 45 3c 98 a8 3d be
       0.28245994 0.13290264 0.012064905 -0.18521345

image_embeds f4 [1, 8, 32]
000000 c2 0e a2 bc 5c 08 f1 bb 80 03 d3 3c 03 3f 7e 3b
       -0.019782428 -0.007355733 0.025758505 0.0038794882
000010 48 c5 96 3c f9 1a 3d 3c 70 8e 50 bc 3e 96 31 3c
       0.018404618 0.011542075 -0.012729272 0.010839043
000020 e7 7b cf bb eb 47 d3 bb e2 b7 fe 3a 29 02 fa bc
       -0.006331909 -0.0064477823 0.0019433463 -0.030518608
000030 12 53 c3 3c 14 e7 5b bc 57 e2 a3 3c c7 ad 32 3b
       0.023843322 -0.013421793 0.020005388 0.0027264224
000040 20 02 fb 3c 3e 42 58 bc 7e 56 cc bb 41 5c dd 3b
       0.030640662 -0.013199387 -0.0062358966 0.0067553823
000050 06 d6 34 bd 8b a5 87 3c aa 94 fc 3c b3 9d b8 3c
       -0.04414942 0.01655843 0.030832607 0.022536134
000060 aa 52 77 3c 0e 56 3f bb e0 06 d2 3c 1c f8 af 3c
       0.015095392 -0.002919558 0.025638044 0.021480612
000070 6c a7 00 3c 84 82 d6 38 69 16 ed bb ae 8f c9 bc
       0.0078524165 0.000102286256 -0.0072353375 -0.024604645
000080 c9 e7 c8 3c 0f ef 31 bd 6b 94 f2 bb cc 74 57 3b
       0.024524586 -0.043440875 -0.0074029467 0.0032876013
000090 07 e2 8c 3c b7 50 10 3d 05 bf a2 3c 2e 0d bf bb
       0.017197622 0.035233226 0.019866476 -0.0058304286
0000a0 c3 97 6e 3c 5b b3 ce bc f8 47 ea 3c 67 18 4d bb
       0.01456255 -0.025232008 0.02859877 -0.0031295063
0000b0 04 c7 5c bc 3e 68 51 bc e4 da a0 ba 30 b5 00 bc
       -0.013475183 -0.012781201 -0.0012272266 -0.0078556985
0000c0 e4 96 3b 3d 66 55 6b bc 5e f5 2a 3a ef 0f 13 3a
       0.045798197 -0.014363622 0.0006521548 0.0005609979
0000d0 33 3a 14 3a fb 15 91 3a 6b cc 1d bc c5 2b 3f bc
       0.00056544243 0.0011069173 -0.009631257 -0.01166815
0000e0 a2 41 8d bc 90 d2 f3 bc 44 c2 8d 3b bd 47 a1 3c
       -0.01724321 -0.02976349 0.004326137 0.019687528
0000f0 33 f5 31 bc 06 0c 37 bc 02 69 cf bb 43 f1 16 bc
       -0.010861683 -0.0111723 -0.0063296566 -0.009212795
000100 85 51 eb bc c7 a8 df 3c fb d9 0f 3c 4e 35 69 bc
       -0.028725395 0.027302159 0.008779998 -0.0142339
000110 26 c1 c2 3b 76 ac 0f bc df b2 8a bb 00 87 ee 3b
       0.0059434352 -0.008769145 -0.004232749 0.007279277
000120 3a 22 9c 3c 75 f5 f8 3c 92 95 0b 3d 90 17 a3 bb
       0.01905929 0.03039048 0.03407819 -0.004977174
000130 f3 c1 23 bc 60 8b 02 3b d6 38 28 3b fe 96 70 bc
       -0.009994972 0.00199195 0.0025668642 -0.014684437
000140 3d 51 4b bc 2c 3f 85 3c 10 7f 06 3d 89 70 94 bb
       -0.012409505 0.016265474 0.03283602 -0.004530017
000150 42 53 54 bc cd b5 b9 bb d6 0a a3 bc 49 d4 b2 bb
       -0.012959303 -0.0056674243 -0.019902628 -0.0054574353
000160 2f 6d 0a 3c 55 3c d5 ba f0 45 ca 3c 9e c5 45 3b
       0.008448883 -0.0016268591 0.024691552 0.0030177603
000170 3b a7 1d 3c be fa 42 bb 05 8f d7 3c e4 44 c8 bc
       0.00962239 -0.0029751505 0.026313314 -0.024446912
000180 2d f6 c6 bb 12 4c c0 bc 6c 60 87 3c 1a 51 8b 3c
       -0.006071827 -0.023473773 0.01652547 0.017006446
000190 b8 01 29 bc 28 d5 07 3d 64 d0 c2 bb 0a a7 e2 bc
       -0.010315351 0.033162266 -0.0059452523 -0.027667541
0001a0 49 4a b8 bb 6b f1 eb 3b 74 9c 99 bb 69 97 39 3d
       -0.00562409 0.00720041 -0.00468784 0.04531041
0001b0 84 25 8c 3c 90 d3 0d 3d 40 10 e3 3c 77 19 0a bd
       0.017107733 0.03462559 0.02771771 -0.03371569
0001c0 60 91 f7 bb 7d 84 5f bd b0 cf 53 bc dc b2 b6 3c
       -0.007555172 -0.05456971 -0.0129279345 0.022302084
0001d0 d6 26 8a bc 4b a1 50 bc 3c bc d5 3b 72 fe 80 3c
       -0.016864222 -0.012733768 0.0065226834 0.015746329
0001e0 77 83 e9 bb 29 a6 a7 bb 27 8b 84 3c f9 7f a6 3b
       -0.0071262675 -0.0051162434 0.016179634 0.0050811735
0001f0 2e f7 ba bb ee 1c ce 3b 47 8c c7 3a 50 e0 a6 3b
       -0.0057057356 0.00629007 0.0015224301 0.005092658
000200 dc f0 23 3d 65 05 c8 bb 97 de 30 bc f9 9b e7 3c
       0.040024623 -0.0061041587 -0.010795257 0.028272616
000210 75 3e 67 bc b2 e4 0c 3d f8 89 7e bb dc 90 c1 3a
       -0.014114012 0.03439779 -0.003883956 0.0014767903
000220 33 65 70 3c 82 c1 c6 3c 27 59 a3 3c 57 74 85 bb
       0.014672565 0.024262194 0.019939972 -0.0040727067
000230 8e 24 f0 bb 3c b8 e3 3b 38 94 30 3b c6 75 52 bc
       -0.0073285764 0.0069494527 0.0026943814 -0.012845462
000240 5e 96 06 3c 66 e0 a2 3c 61 3e 5a 3b 74 1f 00 3d
       0.008214561 0.019882392 0.003330134 0.031279996
000250 a3 72 06 3c 2a 3a 4c bb 89 5a 03 3b 6b 89 37 bc
       0.008206042 -0.0031162598 0.0020042977 -0.011202197
000260 c5 f7 a8 bc 1c 26 1c 3c e9 cb 8b bc 6b cf ea bb
       -0.020625958 0.00953057 -0.017065005 -0.0071658394
000270 25 d5 e9 ba c2 61 fc 3b 12 1d 17 3c cd 24 8e 3a
       -0.0017840011 0.0077020833 0.0092232395 0.0010844708
000280 75 36 1e bd 80 64 87 bb f5 20 7e bc 09 f2 11 bb
       -0.038626153 -0.0041318536 -0.015510787 -0.0022269508
000290 3b 6b a2 3c c7 dc 83 3c 49 65 90 3b 34 ba 25 3c
       0.019826522 0.016096486 0.0044066054 0.010115195
0002a0 5d dc f3 bc ab 6a 7f 3b c2 a3 4c 3c 40 62 67 bc
       -0.029768163 0.0038973491 0.012490215 -0.014122546
0002b0 d2 b4 04 3c 0b 94 f9 bb 4b ec a3 3c 74 9a b5 3c
       0.008099752 -0.007616525 0.020010134 0.022168376
0002c0 db 3c 2f bc 6b af ef 3c 5d 24 79 bb 1c ea 28 3d
       -0.010695661 0.02925845 -0.003801606 0.04123889
0002d0 8e 12 21 bc 24 22 a7 3a 40 b7 8b 3b 55 05 76 bc
       -0.009831084 0.0012751264 0.0042637885 -0.01501592
0002e0 d5 57 0d bd d2 01 83 bc f2 e1 b0 3c 1b 65 d7 bb
       -0.03450759 -0.015992079 0.021592114 -0.006573332
0002f0 46 1c d6 bb 49 83 f8 3c f3 b8 21 3c e5 21 66 3c
       -0.006534132 0.03033604 0.0098707555 0.014046167
000300 76 2c 8b 3c de ab 94 bc 2a 7b 23 3b 6d e4 44 3b
       0.016988974 -0.018148359 0.0024945238 0.003004338
000310 ca 3a 50 bb 13 15 b3 bc aa f8 17 3c 7d dc 07 bd
       -0.0031773322 -0.021860635 0.009275595 -0.03316926
000320 6e 87 99 bc 1a 9a 84 bc 1d 0c 07 bc fb cd 89 3c
       -0.018741336 -0.016186763 -0.008242634 0.016821852
000330 1b b7 07 3d 26 17 0d 3d f8 18 84 3c 32 14 10 3c
       0.033133607 0.034445904 0.016125187 0.008793877
000340 fb 68 3f bd a7 28 b9 3c 01 5d 57 3d 07 66 14 3c
       -0.046730977 0.022602392 0.05257893 0.009057528
000350 48 61 99 3b db f2 64 3c cb c1 6e 3c 69 d6 30 3b
       0.0046807863 0.013973917 0.014572571 0.0026983267
000360 e5 fb f4 bb 20 15 ed 3b 02 c1 e0 bc 58 35 1a bd
       -0.007476317 0.0072351843 -0.027435783 -0.03764853
000370 e7 f9 de 3c f8 18 16 bc b3 9a 6a 3c 66 b4 fe 3c
       0.027218772 -0.009161226 0.01431911 0.03109188
000380 45 ee c7 3c f2 55 35 bc af d4 d4 3b 3c 0d bf bc
       0.024405608 -0.011067854 0.0064950804 -0.02332174
000390 e9 10 09 bb 21 61 ab 3c e4 e8 27 3a 8c 95 69 bd
       -0.002091462 0.020920338 0.0006405248 -0.057027385
0003a0 6a 6c 38 bd ef 54 83 bc 35 70 da 3c f7 78 82 3b
       -0.045025267 -0.01603171 0.026664833 0.0039817053
0003b0 65 2b 39 3b aa 9b d7 bc 4f ee 3f 3b d2 61 3a bd
       0.0028254625 -0.026319344 0.002928633 -0.045503445
0003c0 ec 05 e0 3b ed 34 c1 3c 19 f4 85 bc de aa b1 3c
       0.0068366434 0.023584807 -0.016351746 0.021687921
0003d0 33 e5 6b bc c2 2a 41 3b 9b 2c 32 bb 6c 11 f6 3a
       -0.014397907 0.0029474949 -0.0027187231 0.0018773503
0003e0 14 2d fa 3c e0 60 90 3c 65 13 5e bc 75 81 62 bd
       0.030539073 0.017624319 -0.013554429 -0.05529924
0003f0 c6 9a 92 3c 60 51 7a 3c 74 f0 58 3b 6f e8 36 bc
       0.017896067 0.01527819 0.0033102306 -0.011163815

image_seq_mask i4 [1, 8]
000000 00 00 00 00 00 00 00 00 01 00 00 00 01 00 00 00
       0 0 1 1
000010 00 00 00 00 00 00 00 00 00 00 00 00 00 00 00 00
       0 0 0 0

input_ids i4 [1, 8]
000000 0b 00 00 00 48 00 00 00 7c 00 00 00 15 00 00 00
       11 72 124 21
000010 50 00 00 00 14 00 00 00 3d 00 00 00 58 00 00 00
       80 20 61 88
