Tests/DeepSeekOCR2Tests/Fixtures/deepseekv2_tiny/weights.safetensors (safetensors, 244464 bytes, 78 tensors)

lm_head.weight f4 [128, 32]
0	0x3ab9d0c6	0.0014176599
1	0xbc791af0	-0.015204176
2	0xbce3bea4	-0.027800865
3	0xbcaa2845	-0.020771155
4	0xbb346938	-0.0027528536
5	0xbc4bd641	-0.012441219
6	0xbcd31298	-0.025765702
7	0xbcb35c9d	-0.021894747
8	0x3bab1869	0.005221416
9	0xbaefbf57	-0.0018291277
10	0x3c0a5afe	0.008444546
11	0x3b0bf87b	0.0021357823
12	0xbba6b350	-0.0050872937
13	0xbca53eb0	-0.020171493
14	0xbd06cb69	-0.03290883
15	0xbca581aa	-0.02020343
16	0x3aa22847	0.0012371623
17	0xbbaeb02d	-0.0053310604
18	0xbc5cd8a7	-0.013479388
19	0xbbd032c6	-0.006353709
20	0xbcabdfc2	-0.02098072
21	0x3bf9fce9	0.007629026
22	0xbd19b0b7	-0.037522044
23	0xbc40172e	-0.0117242765
24	0xbb1d02e7	-0.0023958029
25	0x3cf30ad4	0.02966825
26	0x3a19741e	0.00058537896
27	0xbc8cfdbf	-0.01721084
28	0xbd157c66	-0.03649559
29	0xbb554327	-0.0032541247
30	0xbd075e38	-0.03304884
31	0xba8b2cbc	-0.001061819
32	0xbd471193	-0.048600744
33	0x3c99262b	0.018694958
34	0xbb062da4	-0.0020473981
35	0xbd0cae15	-0.034345705
36	0x3c2448d0	0.0100271255
37	0x3c27cf9c	0.010242369
38	0x3bbee84b	0.0058260313
39	0xbd030af4	-0.031992868
40	0xbad0d50c	-0.0015932634
41	0xbbd278f3	-0.0064231097
42	0xbcacf432	-0.021112535
43	0xbbf4fc6a	-0.007476379
44	0xbccac354	-0.024751343
45	0xbb86e2e2	-0.004116402
46	0xbc83413f	-0.016022323
47	0x3c9364e9	0.017992454
48	0xbd2f88a6	-0.042854927
49	0xbb85ce77	-0.0040834504
50	0x3ce4c8e7	0.027927829
51	0x3c31b25d	0.010845748
52	0xbb2f51f3	-0.0026751726
53	0x3c69cfbb	0.014270718
54	0xbc1f1d3d	-0.009711561
55	0x3ba61830	0.0050688013
56	0xba9e7bc6	-0.0012091331
57	0xbc19c84a	-0.009386132
58	0x3cb51fe0	0.022109926
59	0x3c7717c1	0.015081347
60	0xbc970bc1	-0.018438222
61	0xbca1a016	-0.019729655
62	0xbc8d1629	-0.01722248
63	0xbb9c3e29	-0.0047681523
64	0x3c99d8cd	0.018780136
65	0xbbfbbe6a	-0.0076826112
66	0xb71b14f1	-9.243596e-06
67	0xbc219e34	-0.009864379
68	0xbc20417d	-0.009781239
69	0x3c954563	0.018221563
70	0xbaa49899	-0.0012557685
71	0x3cfb8f3d	0.03070795
72	0xbc5a5a6c	-0.013327222
73	0x3cbee5b3	0.023302888
74	0xbc7db9e6	-0.015486216
75	0x3bd4b6a1	0.0064914976
76	0x3bb97722	0.0056599537
77	0xbbfd1b33	-0.0077241897
78	0x3bca12e9	0.006166805
79	0xbc585fb3	-0.01320641
80	0x3d33976a	0.04384557
81	0x3cb03850	0.021511227
82	0xbce07c39	-0.027402984
83	0xbc944459	-0.018098997
84	0xbc8a5189	-0.016884582
85	0x3be94523	0.0071188374
86	0x3bd0f4ac	0.0063768234
87	0xbcd02f65	-0.025413224
88	0x3cb066db	0.02153342
89	0xbbddb8f7	-0.0067664343
90	0x3c9df656	0.019282501
91	0xbd1103b2	-0.035403915
92	0xbbb011ce	-0.0053732162
93	0xbbed7dcf	-0.0072476636
94	0x3b0da92d	0.002161573
95	0xba6053d8	-0.00085574156
96	0xbcd2289d	-0.025654132
97	0xbbcb5b7d	-0.0062059746
98	0x3d003765	0.03130283
99	0x3c5e8173	0.013580668
100	0x3cb9eff5	0.022697428
101	0x3ba35820	0.0049848706
102	0xbc9d2c3b	-0.01918613
103	0x3c998b6a	0.018743236
104	0xbc6b9abb	-0.014380152
105	0x3c53ff73	0.012939322
106	0xbc5ffb84	-0.013670806
107	0xbc3eba80	-0.011641145
108	0x3caef0f7	0.021355135
109	0x3c9463f0	0.01811406
110	0x3cd7bf52	0.026336346
111	0x3a1d9cab	0.000601242
112	0xbd305f21	-0.043059472
113	0x3c154cd7	0.009112558
114	0x3c825e7e	0.015914198
115	0x3c8b5da0	0.017012417
116	0xbbf5f3d2	-0.0075058723
117	0x3c90df19	0.017684506
118	0xbc3473d3	-0.011013943
119	0x3c194ecf	0.009357168
120	0xbc5a9a72	-0.013342487
121	0xbbb2229d	-0.005436255
122	0x3c491beb	0.012274723
123	0xbcb4d785	-0.022075424
124	0xbc9d4f4e	-0.019202854
125	0x3c13b3f0	0.009015068
126	0x3c56945d	0.013096896
127	0x3cc1bc85	0.023649463
128	0xb87b9c8c	-5.998886e-05
129	0xbc16f42b	-0.009213488
130	0x3c0a3c93	0.008437294
131	0xb91cdf7e	-0.00014960577
132	0x3d13b0d2	0.0360573
133	0x3cdf5f72	0.027267192
134	0x3c23d753	0.010000068
135	0xbd18a474	-0.03726621
136	0xbc2dcc69	-0.010607817
137	0x3caee0e6	0.021347474
138	0xbcba172f	-0.022716133
139	0x3d50a90b	0.050942462
140	0x3c1709cf	0.009218647
141	0x3c704e83	0.014667156
142	0xbc0a0372	-0.008423673
143	0x3c140269	0.009033778
144	0x3c88376d	0.016627992
145	0xbc231ac8	-0.009955116
146	0x3c314c7b	0.010821457
147	0x3b914d58	0.004434269
148	0xbc8e27d8	-0.017352983
149	0x3c08d3c9	0.008351275
150	0xbc0f5311	-0.008747832
151	0xbb58f709	-0.0033106229
152	0x3c53120b	0.01288272
153	0xbc228df3	-0.009921539
154	0x3c704414	0.014664669
155	0x3c8e0298	0.017335221
156	0x3bfef766	0.007780957
157	0xbca10af8	-0.01965855
158	0xbcf4e575	-0.02989457
159	0x3bc78a0d	0.006089455
160	0xbc596189	-0.013267883
161	0x3b4afa15	0.0030971814
162	0xbc62ef54	-0.013851006
163	0xbc5c7d8f	-0.01345767
164	0x3bcf3f46	0.0063246815
165	0x3c69cd6e	0.01427017
166	0x3c6daf0e	0.014507068
167	0xbba053be	-0.0048927953
168	0x3c831587	0.016001476
169	0x3d0f6539	0.035008643
170	0xbaec63ac	-0.0018035076
171	0x3ca655d9	0.020304607
172	0x3ca93805	0.020656595
173	0xbd3bac46	-0.04581859
174	0x3b2d7658	0.0026468243
175	0xbc9a73a4	-0.01885397
176	0x3c0ab1bb	0.008465226
177	0x3d36684f	0.04453307
178	0xbc2b1aef	-0.010443433
179	0xbc77a1e6	-0.015114283
180	0x3cb56335	0.022142032
181	0xbc771fd0	-0.015083268
182	0x3d023228	0.031786114
183	0xbbe421ac	-0.006962022
184	0x3cd2268a	0.025653142
185	0xbc42f487	-0.01189912
186	0xbc8e3e49	-0.017363684
187	0x396b55bd	0.00022443286
188	0x3c4d43a7	0.012528337
189	0xbcc28384	-0.023744352
190	0x3d1a529d	0.037676442
191	0x3c600693	0.013673442
192	0x3cc45a78	0.02396892
193	0x3bda12eb	0.006655087
194	0xbc0ae759	-0.008478009
195	0xbd1f99ca	-0.038965024
196	0x3d033c45	0.0320399
197	0x3bfe43ca	0.007759546
198	0xbc2790fb	-0.010227437
199	0x3c20d8a9	0.009817281
200	0xbb8a5748	-0.0042218305
201	0x3caad953	0.020855581
202	0x3ca9aa33	0.02071104
203	0xbc7f57bd	-0.015584883
204	0xbc30e276	-0.01079618
205	0x3b27d09e	0.0025606523
206	0xbc19a0a7	-0.009376681
207	0x3c95924b	0.018258234
208	0xbc809a00	-0.015698433
209	0xbc9fa596	-0.019488137
210	0x3ce1c638	0.027560338
211	0xbc15744e	-0.0091219675
212	0x3b9e6354	0.004833618
213	0xbbc05715	-0.005869756
214	0xbc34b362	-0.011029096
215	0xbc868754	-0.016421951
216	0xbca5519c	-0.020180516
217	0xbc9cbec5	-0.019133935
218	0x3c40bb04	0.011763338
219	0x3bd72842	0.0065660784
220	0xbbefcb73	-0.007317954
221	0xbc1e1a57	-0.009649835
222	0x3b2f5392	0.0026752693
223	0xbcbdc46b	-0.023164948
224	0x3ca910af	0.020637838
225	0xbc338290	-0.0109564215
226	0xba243e52	-0.000626539
227	0x3c9146e3	0.017733997
228	0x3cb361f0	0.021897286
229	0x3baf70d2	0.0053540254
230	0x3ba5b286	0.005056682
231	0x3bec5419	0.0072121737
232	0x3d1a0b5a	0.037608482
233	0x3c0e9bc7	0.008704132
234	0x3b8635a7	0.0040957513
235	0x3d469a20	0.04848683
236	0x3cbffca4	0.023435898
237	0x3d47f33e	0.04881596
238	0xbb079710	-0.0020689406
239	0xbbfc0849	-0.0076914174
240	0x3af21bb5	0.0018471392
241	0x3c584218	0.013199352
242	0x3af0203b	0.0018320152
243	0x3c6958aa	0.014242331
244	0xbc6b362b	-0.014356176
245	0x3bbf0070	0.0058289096
246	0x3bb1ce7b	0.0054262257
247	0xbbb07fa0	-0.005386308
248	0xbc103fae	-0.008804245
249	0x3bd5a093	0.006519386
250	0xbc83fbe2	-0.016111318
251	0xbc240ef2	-0.010013329
252	0xbc5b3bc7	-0.013380951
253	0x3ce39f58	0.027785942
254	0x3cd221c6	0.02565087
255	0xbaa7abca	-0.0012792286

model.embed_tokens.weight f4 [128, 32]
0	0x3b24cc0f	0.0025146042
1	0xbb2d2709	-0.0026420972
2	0x3c51da8b	0.012808452
3	0x3b097ea3	0.0020980022
4	0xbc2f8734	-0.010713387
5	0x3becf995	0.007231901
6	0x3cd5a5b9	0.02608
7	0x3c9b2b74	0.018941619
8	0xbc669997	-0.014074705
9	0xbccf53a0	-0.02530843
10	0xbc4c3c0d	-0.012465489
11	0x3a58aaca	0.00082651956
12	0xbd3e776e	-0.046500616
13	0xbb8f6326	-0.004375833
14	0xbccc214b	-0.02491822
15	0xbc6ff30a	-0.014645347
16	0xbc3257c1	-0.01088518
17	0xbbcf4a5c	-0.006326003
18	0x3c06e212	0.00823261
19	0x3caace2e	0.020850267
20	0xbb287913	-0.0025706931
21	0x3cdfe1a1	0.027329268
22	0xbc59f893	-0.013303894
23	0x3be65d9b	0.0070302016
24	0x3c940649	0.018069403
25	0x3af67295	0.0018802459
26	0xbc73a13d	-0.014869985
27	0xbc9703f7	-0.018434508
28	0xbc15fcd3	-0.009154516
29	0x3b904e9d	0.0044039027
30	0xbca56a74	-0.020192362
31	0xbb8915d6	-0.0041835112
32	0xbb50b30c	-0.0031845002
33	0x3c31396a	0.010816911
34	0x3b8cadd3	0.0042931824
35	0x3be8e5a5	0.007107454
36	0xbc563f1e	-0.013076572
37	0xbb29e31e	-0.0025922726
38	0x3c807250	0.015679508
39	0x3cf4af0a	0.029868621
40	0xbcce4909	-0.02518131
41	0x3cf80a90	0.030278474
42	0x3cdc821b	0.026917508
43	0x3c800293	0.015626227
44	0x3bad504a	0.005289112
45	0xbbcdbb82	-0.006278456
46	0x3ceee1d2	0.029160414
47	0x3d209599	0.039205167
48	0x3d139706	0.0360327
49	0x3cd77773	0.026302075
50	0x3bea367c	0.0071476083
51	0xbcc5f88e	-0.024166372
52	0xb8bad1e4	-8.908266e-05
53	0x3c571d1c	0.013129499
54	0xbcd315cb	-0.025767228
55	0x3c01793d	0.007902441
56	0x3c0cdb94	0.008597273
57	0x3c64144b	0.013920854
58	0xbcc20181	-0.023682358
59	0xbc58d3a2	-0.013234051
60	0xbc0f02d7	-0.008728704
61	0xbcbfa90d	-0.02339604
62	0x3d0e7d30	0.034787357
63	0xbc228002	-0.009918215
64	0x3bd797f2	0.0065793926
65	0xbba97546	-0.005171451
66	0x3d01b7d5	0.031669457
67	0x3cd853f4	0.02640722
68	0x3c4f8978	0.012667052
69	0xbd3482f3	-0.044070195
70	0x3a88640d	0.0010405794
71	0x3c6007c1	0.013673724
72	0x3ca47d33	0.02007923
73	0xbc4a79cd	-0.012358141
74	0x3d154259	0.036440227
75	0xbcd856e4	-0.02640862
76	0xbc58c4fe	-0.01323056
77	0x3c9932d7	0.018701
78	0x3a8097ff	0.0009810923
79	0x3d240937	0.04004785
80	0x3b77188b	0.0037703838
81	0xbc4f7c2b	-0.012663881
82	0xbbf770a5	-0.00755127
83	0xbcb2c5fc	-0.021822922
84	0xbcd155ca	-0.025553603
85	0x3c4e92c0	0.01260823
86	0x3c3e6fb8	0.0116233155
87	0x3cd419bb	0.025891175
88	0xbc7744eb	-0.015092115
89	0x3d0a5f26	0.033782147
90	0xbbbc57a7	-0.0057477537
91	0x3d00f9bc	0.031488165
92	0xbc0dd0b5	-0.008655717
93	0xbc7100cf	-0.014709665
94	0x3ba3b308	0.0049957074
95	0x3ca8fe47	0.020629061
96	0x3b5309d9	0.0032201915
97	0xbc3fddb8	-0.011710577
98	0xbcdbbed4	-0.026824392
99	0xbce5a005	-0.028030405
100	0x3c24b818	0.010053657
101	0x3ca22792	0.01979426
102	0xbb57581d	-0.0032858916
103	0xbcb00621	-0.021487297
104	0x3c8f0a0b	0.017460844
105	0xbcd1c79d	-0.025607878
106	0xbc69a87c	-0.014261361
107	0x3c4b7ec1	0.012420357
108	0xbd3854e1	-0.04500282
109	0x3bfd360f	0.0077273916
110	0xbc3e9792	-0.011632817
111	0x3b0f3c2f	0.002185594
112	0xbac6726f	-0.0015140305
113	0x3b84752b	0.004042288
114	0x3c63775d	0.013883439
115	0xbc7880aa	-0.015167395
116	0x3ce8d04e	0.02841964
117	0x3c6ded29	0.014521875
118	0x3c8a3cb6	0.016874652
119	0x3cbed9ef	0.023297278
120	0x3c8109d8	0.015751764
121	0x3c8a4b39	0.016881572
122	0x3ac62a04	0.0015118723
123	0xbce9c33c	-0.028535478
124	0xbb31019d	-0.0027009018
125	0xbc7c2790	-0.015390292
126	0xbce91a1d	-0.028454835
127	0x3ba9612f	0.005169056
128	0xbc3a4d62	-0.011370989
129	0xbca8b921	-0.020596089
130	0xbcaae2a2	-0.02086002
131	0x3bafe8ea	0.0053683417
132	0x3beb0f2b	0.007173439
133	0x3cd8abe2	0.026449148
134	0xb991e7e7	-0.00027829336
135	0x3caab1ed	0.020836795
136	0x3ce5bf40	0.028045297
137	0x3cbc7172	0.023003314
138	0xbd41c405	-0.04730608
139	0x3cc94ebb	0.024573674
140	0x3bde92c7	0.0067923996
141	0x3c0adc84	0.008475427
142	0x3bf349a0	0.0074245483
143	0x3bfad7fe	0.007655143
144	0x3bd154d0	0.0063882843
145	0xbbeb37a9	-0.007178266
146	0xbd1bc82e	-0.038032703
147	0xbb0ec1b7	-0.0021782944
148	0xbc83aef5	-0.016074637
149	0x3cb0f956	0.021603268
150	0xbbbd3efb	-0.00577533
151	0x3adad35d	0.0016695071
152	0xbc8b330f	-0.01699212
153	0xbc27521d	-0.010212448
154	0xb971dda7	-0.00023066123
155	0xbcf35d26	-0.029707503
156	0x3bc50e97	0.006013702
157	0xbb0b07f1	-0.002121445
158	0xbcc244b2	-0.023714397
159	0xbd447697	-0.04796466
160	0x3c281dee	0.010261042
161	0xbbc30650	-0.0059516802
162	0xbc2dac54	-0.010600168
163	0xbb9ac42c	-0.0047230925
164	0x3d14ce43	0.03632952
165	0xba828cdd	-0.0009960193
166	0x3ae31134	0.0017323853
167	0xbcf3a45b	-0.029741457
168	0x3d06f334	0.03294678
169	0x3c96523c	0.01834976
170	0x3caece7d	0.021338696
171	0x3a79f141	0.0009534546
172	0x3c962f49	0.018333094
173	0x3bf31a8c	0.007418936
174	0x3c48ee07	0.012263781
175	0xbb477b7c	-0.0030438593
176	0xbcf17b57	-0.029477758
177	0x3ca89147	0.020577086
178	0xbd1e830b	-0.03869919
179	0xbb9d3eb1	-0.004798733
180	0xbb86092e	-0.00409045
181	0xbcaadcb9	-0.020857202
182	0x3c48e87e	0.012262462
183	0xbb8349bf	-0.004006594
184	0xbc0f272c	-0.008737367
185	0x3c2a577c	0.010396834
186	0xbc1c2a59	-0.009531581
187	0x3ce3920b	0.0277796
188	0x3be65460	0.0070291013
189	0xbc1b6def	-0.009486659
190	0xbd1f4631	-0.0388853
191	0xbcd64325	-0.026155064
192	0x3cb210fc	0.021736614
193	0xba84a7d0	-0.0010120813
194	0xbbb98c81	-0.0056625013
195	0x3d069d7c	0.032865033
196	0xbcd22635	-0.025652984
197	0xbc3fe889	-0.011713156
198	0xbc1adb87	-0.009451753
199	0x3c402189	0.011726745
200	0xbc596d5d	-0.013270703
201	0xbc490138	-0.012268357
202	0xbd037e6c	-0.032102987
203	0x3c6efe42	0.014586987
204	0x3c8413ef	0.016122786
205	0xbc1c1960	-0.009527534
206	0x3b5617ca	0.0032667988
207	0xbcd3c982	-0.025852922
208	0xbc1a9a8e	-0.009436263
209	0x3ce1c373	0.027559018
210	0x3b31e7ad	0.0027146146
211	0x3d3d43d5	0.046207268
212	0xbc80f942	-0.015743855
213	0x3c3e25c9	0.011605688
214	0xbb80206f	-0.0039101164
215	0x3c39683d	0.011316356
216	0xb9173bb1	-0.00014422719
217	0xbc37e4b5	-0.011223962
218	0xbc8e267c	-0.017352335
219	0x3d7b2b73	0.061320733
220	0xbacac164	-0.0015469012
221	0xbd253470	-0.04033321
222	0xbc54888f	-0.012972011
223	0x3c5e2e18	0.013560794
224	0xbc23d7be	-0.010000167
225	0x3cdee540	0.027208924
226	0x3ca43ba1	0.020047965
227	0xbb47ac5d	-0.0030467727
228	0xbc1abc58	-0.009444319
229	0xbca4a069	-0.02009602
230	0xbc655d73	-0.013999331
231	0xbcf15c19	-0.02946286
232	0x3cc5540a	0.024087925
233	0x3d024f69	0.031814013
234	0xbccdce40	-0.025122762
235	0xbcc19b60	-0.023633659
236	0xbd10e062	-0.035370238
237	0xbc9deafa	-0.019277085
238	0xbd7e789b	-0.062126737
239	0xbcbb26a6	-0.022845577
240	0x3cd47c93	0.025938308
241	0xbbe28a39	-0.00691345
242	0x3c8c03dc	0.017091684
243	0xbc2039b2	-0.009779381
244	0x3d103bdf	0.035213348
245	0x3b828f3b	0.0039843596
246	0xbbfa5959	-0.0076400456
247	0x3d511835	0.051048476
248	0xbbd4a558	-0.006489437
249	0xbcc815d2	-0.024424467
250	0x3b8452e0	0.0040382
251	0xba4b9b81	-0.00077670073
252	0x3caeb4e5	0.021326492
253	0xbc970020	-0.018432677
254	0x3c83d846	0.016094338
255	0x3c8bb6dd	0.01705497

model.layers.0.input_layernorm.weight f4 [32]
0	0x3f7af85f	0.98035234
1	0x3f816383	1.0108494
2	0x3f81ab74	1.0130448
3	0x3f7f6704	0.99766564
4	0x3f823d0a	1.0174878
5	0x3f7fd5b6	0.9993547
6	0x3f7ff054	0.99976087
7	0x3f8175b5	1.0114046
8	0x3f800413	1.0001243
9	0x3f7ed64a	0.9954573
10	0x3f7f14f2	0.99641335
11	0x3f7b99c1	0.98281485
12	0x3f7fcccf	0.9992189
13	0x3f7ff2e7	0.99980015
14	0x3f818f64	1.0121884
15	0x3f80d307	1.00644
16	0x3f7e174c	0.992543
17	0x3f810832	1.0080626
18	0x3f806011	1.0029317
19	0x3f820130	1.0156612
20	0x3f812819	1.0090362
21	0x3f7fbc12	0.9989635
22	0x3f815603	1.0104374
23	0x3f7f0b84	0.99626946
24	0x3f7d8b6a	0.99040854
25	0x3f804f55	1.002421
26	0x3f80b678	1.0055685
27	0x3f815699	1.0104553
28	0x3f7fecef	0.99970907
29	0x3f801306	1.0005805
30	0x3f80ed9e	1.0072515
31	0x3f7fd07f	0.99927515

model.layers.0.mlp.down_proj.weight f4 [32, 64]
0	0xbbf44fae	-0.0074557876
1	0xbc972537	-0.018450363
2	0xbcb8e70b	-0.022571107
3	0xbaa1fe69	-0.0012359145
4	0xbb4e5a72	-0.0031487015
5	0xbcb49807	-0.022045149
6	0x3ca9ffa1	0.020751776
7	0xbc283317	-0.010266087
8	0xbc43de8d	-0.011954916
9	0xbc2ede26	-0.0106730815
10	0xbc8a9d2f	-0.016920654
11	0xbc2e518e	-0.010639561
12	0x3c831382	0.016000513
13	0x3cc9c506	0.02463008
14	0x3cb6bc4a	0.02230658
15	0x3c5dcdc9	0.013537833
16	0x3bd0723d	0.0063612745
17	0x3ba3a2e6	0.0049937842
18	0x3c800c1e	0.015630778
19	0x3b9af399	0.004728746
20	0x3c3f4d73	0.01167618
21	0xbab4eea2	-0.0013804028
22	0xbb2e72b7	-0.0026618668
23	0x3c5e1947	0.013555831
24	0xbc5e77ab	-0.013578336
25	0x3d2a59f7	0.041589703
26	0xbd2eab9e	-0.042644136
27	0xbd341bbe	-0.04397177
28	0xbc8a687f	-0.01689553
29	0x3c17b35d	0.009259072
30	0xbcb77870	-0.022396296
31	0x3cb5a727	0.022174431
32	0x3bd1fadd	0.006408079
33	0xbbb260d3	-0.0054436713
34	0xbced985e	-0.029003318
35	0x3d085bbe	0.033290617
36	0x3c8e7314	0.017388858
37	0xbb9c99bd	-0.004779069
38	0x3cce836e	0.025209155
39	0xbc79092e	-0.0151999425
40	0xbc331acb	-0.010931681
41	0xbc560eee	-0.013065083
42	0x3cf98f5c	0.030463867
43	0x3ced947c	0.029001467
44	0xbc0142ef	-0.007889493
45	0x3c280d42	0.010257067
46	0x3c558fbd	0.013034758
47	0xbc224a14	-0.009905357
48	0x3b53422b	0.0032235484
49	0x3c996ab0	0.01872763
50	0xbc6b7482	-0.014371039
51	0x3c0dba11	0.008650319
52	0xbcb4c829	-0.0220681
53	0xbbfcd22b	-0.0077154837
54	0x3c593ac5	0.013258641
55	0xbc977ff4	-0.01849363
56	0x3c8322b0	0.016007751
57	0x3b7e85a3	0.0038836978
58	0xbbd3494a	-0.0064479457
59	0xbc176390	-0.009240046
60	0x3c3caa35	0.01151519
61	0x3ca43d79	0.020048844
62	0x3c236e3b	0.009975011
63	0xbc42002f	-0.011840864
64	0x3b1fb909	0.0024371764
65	0x3d312380	0.043246746
66	0xbc96cfa1	-0.018409552
67	0xba5e03a2	-0.0008469169
68	0x3cfb4abe	0.030675288
69	0xbc663487	-0.014050609
70	0xbd46842d	-0.048465896
71	0xbb8209ef	-0.0039684693
72	0x3c0603d2	0.008179622
73	0x3b9f707c	0.004865704
74	0xbc3ede04	-0.011649612
75	0xbb37eb86	-0.0028063967
76	0x3c8c2a25	0.01710994
77	0xba78a2b2	-0.0009484693
78	0xba7833b8	-0.0009468156
79	0xbc0b3f82	-0.008499028
80	0x3bb68e86	0.0055711893
81	0x3c17abc8	0.009257264
82	0xbba663bc	-0.005077807
83	0xbc92c649	-0.017916815
84	0xbb732161	-0.0037098753
85	0xbcab2639	-0.02089225
86	0x3c121a31	0.008917377
87	0x3c1d954f	0.0096181175
88	0xbc0c64cb	-0.008568953
89	0x3afd94e2	0.0019346739
90	0xbc3ee782	-0.011651875
91	0xbcdb8d40	-0.026800752
92	0x3b9f0213	0.004852542
93	0x3d3c5390	0.04597813
94	0xbcb55dbe	-0.022139426
95	0x3a9be515	0.0011893833
96	0x3c9e8abc	0.019353263
97	0x3ade1773	0.0016944244
98	0x3d4ba0a1	0.049713735
99	0x3c6bcd54	0.014392216
100	0xbbfe3e13	-0.0077588647
101	0x3d5f3a5d	0.05449902
102	0xbbf36ae6	-0.007428515
103	0xbc2b5b66	-0.010458803
104	0x3cc85382	0.024453882
105	0x3c608273	0.0137029765
106	0x3c2d743e	0.010586796
107	0xbc7f7d5d	-0.015593854
108	0x3cb88746	0.02252544
109	0xbb6084a7	-0.0034258754
110	0x3ca11730	0.019664377
111	0xbc2336be	-0.009961782
112	0xbc08ddae	-0.008353634
113	0x3c82b7ce	0.015956786
114	0x3b7ea730	0.0038856976
115	0x3acb064e	0.001548955
116	0x3aa979a2	0.0012929926
117	0xbc33b802	-0.010969164
118	0x3a8245b7	0.000993899
119	0x3ce1d3e2	0.027566854
120	0x3cf84519	0.030306386
121	0x3c3ee9bb	0.011652405
122	0xbaf3a4af	-0.0018588508
123	0x3ac65e35	0.0015134277
124	0xbc56750a	-0.013089428
125	0x3c79c89b	0.015245582
126	0x3c8a5bb2	0.016889427
127	0x3cb2f805	0.02184678
128	0x3c13e1e1	0.009026022
129	0x3c3b4ac0	0.011431396
130	0xbb68d578	-0.0035527628
131	0x3d0a1d45	0.03371932
132	0xbbdf96d2	-0.006823399
133	0x3d06bec9	0.03289679
134	0xbcf4736c	-0.029840194
135	0xbc4a7812	-0.012357729
136	0x3c3d5c1d	0.011557606
137	0x3cb7ee49	0.02245249
138	0x3c4cf534	0.012509633
139	0xba219ada	-0.0006164737
140	0xbbf6ce26	-0.007531899
141	0xbc410c1c	-0.011782672
142	0xbb9c67b1	-0.004773103
143	0x3b8a76ec	0.0042256024
144	0xbc3a6230	-0.011375949
145	0xbc53e001	-0.012931825
146	0xbc164de2	-0.009173842
147	0x3c4f38a4	0.0126477815
148	0x3ae56f0b	0.0017504407
149	0xbce456a6	-0.027873348
150	0xbd192005	-0.03738405
151	0xbd08d037	-0.033401694
152	0x3c85db78	0.016340002
153	0xbca93b07	-0.02065803
154	0xbc1c05c2	-0.009522857
155	0xbc316669	-0.010827639
156	0x3d1795ae	0.03700798
157	0xba8366ab	-0.0010025104
158	0xbd002c8a	-0.031292476
159	0xbc9dc396	-0.019258302
160	0xbc340066	-0.010986423
161	0xbc33c0a6	-0.010971224
162	0x3ca7271e	0.020404395
163	0x3cbc91c9	0.023018735
164	0xbc23c95e	-0.00999674
165	0xbc199483	-0.009373787
166	0xbcc40c30	-0.023931593
167	0x3cc78e9e	0.024359997
168	0x3c866806	0.016407024
169	0xba89f4e6	-0.0010525256
170	0xbcde1820	-0.027111113
171	0xbc110c29	-0.008852997
172	0xbd68d66b	-0.05684511
173	0x3b009230	0.0019618385
174	0x3c3ca313	0.011513489
175	0x3c948769	0.018130975
176	0x3b1f777f	0.00243327
177	0x3cad4d4d	0.021155024
178	0x3cedce52	0.029029045
179	0xbd0c9e52	-0.034330674
180	0x3c87c6da	0.016574312
181	0x3d12d6cd	0.03584938
182	0xbd262369	-0.040561114
183	0x3cf886bd	0.030337686
184	0xbced3374	-0.028955199
185	0xbc5d3425	-0.013501202
186	0xbca57622	-0.020197932
187	0xbd12c873	-0.035835695
188	0xbc4ce192	-0.012504952
189	0x3c44a8b2	0.012003111
190	0x3cd8be87	0.026458038
191	0xbca8ddb0	-0.020613521
192	0x3d378687	0.04480603
193	0x3c6f0bc6	0.014590209
194	0x3c30c554	0.010789234
195	0xbc716c55	-0.014735301
196	0xbc807932	-0.01568279
197	0xbcc4f014	-0.02404026
198	0xbc20adc0	-0.00980705
199	0xbca8ca9b	-0.020604422
200	0xbd37d10f	-0.04487711
201	0x3c387702	0.011258842
202	0xba0ffe78	-0.0005492936
203	0xbb989624	-0.00465657
204	0xb9272269	-0.0001593918
205	0x3b0abba6	0.0021168976
206	0xbc875144	-0.016518243
207	0x3ced7841	0.028988006
208	0x3c38efe4	0.011287663
209	0x3aefb320	0.0018287636
210	0xbb536170	-0.0032254122
211	0xbcc61606	-0.024180423
212	0x3bb99c5b	0.005664391
213	0x3cadbf97	0.021209521
214	0x3d014172	0.031556554
215	0xba1d506b	-0.0006001058
216	0x3c9d1f59	0.019179987
217	0xbc70da19	-0.014700436
218	0xbbeb5893	-0.0071821897
219	0xbbf92867	-0.0076036933
220	0x3c844539	0.01614629
221	0x3cb13125	0.02162988
222	0xbbbb2672	-0.00571137
223	0xba650ce7	-0.00087375793
224	0x3d3a2432	0.045444675
225	0xbc30575b	-0.010763015
226	0xbce01a5d	-0.027356321
227	0xb9bc6add	-0.00035937774
228	0xbbc3f4d9	-0.005980116
229	0x3c0cada2	0.008586319
230	0x3c0ef036	0.008724263
231	0xbb7b93bd	-0.003838762
232	0x3bfdf001	0.007749558
233	0x3c3d97a7	0.011571801
234	0xbc166382	-0.009178998
235	0xbcc70ee9	-0.024299102
236	0xbcae49dc	-0.021275453
237	0x3d09e941	0.033669714
238	0x3d2ac454	0.04169114
239	0x3c270e17	0.01019623
240	0x3d0b96f6	0.034079514
241	0xbc4c911c	-0.012485769
242	0xbc3107f7	-0.010805122
243	0x3c5fa1fd	0.013649461
244	0xbc198ebc	-0.009372409
245	0xbc7ee338	-0.015557103
246	0xbc823b10	-0.015897304
247	0xbc0de930	-0.008661553
248	0xbc15062a	-0.009095708
249	0x3c95fa4d	0.01830783
250	0xbd184543	-0.037175428
251	0xbcd09de7	-0.025465919
252	0xbd78f3b3	-0.060779285
253	0xbbe1c458	-0.006889861
254	0xbc3845a9	-0.011247077
255	0x3bbee909	0.00582612

model.layers.0.mlp.gate_proj.weight f4 [64, 32]
0	0x3cb51795	0.022105971
1	0x3c7b5949	0.015341111
2	0x3ba737e2	0.0051030973
3	0x3c1301ea	0.008972624
4	0x3cd32253	0.025773203
5	0xbce35e90	-0.027755052
6	0x3acdbe33	0.0015696943
7	0x3c095847	0.008382863
8	0xbb95cd66	-0.0045716045
9	0xbc3a76fe	-0.011380909
10	0x3ccae5de	0.024767812
11	0x39a2bf84	0.00031041738
12	0x3cc78f5d	0.024360353
13	0x3cc19f8b	0.023635646
14	0xbc5be539	-0.01342135
15	0xba29bb45	-0.0006474744
16	0xbbdd94d9	-0.006762129
17	0xbb522795	-0.003206705
18	0xbc1ec6bf	-0.009690939
19	0xbcce65ec	-0.025195085
20	0xbd34b1f9	-0.04411504
21	0xbcfcd0ce	-0.030861285
22	0xbbc77b41	-0.006087691
23	0x3c7386a7	0.014863647
24	0xbcbd582f	-0.023113338
25	0xbb23cb82	-0.0024993126
26	0x3bd4b630	0.006491445
27	0xbbd9af39	-0.0066432026
28	0xbcf735f7	-0.0301771
29	0xbc3a885c	-0.01138505
30	0x3be62cc5	0.00702438
31	0xb9d41c67	-0.00040456952
32	0x3ceafb4b	0.028684279
33	0x3d29cd69	0.04145566
34	0x3d10913d	0.03529476
35	0xbb3acb8d	-0.0028502673
36	0x3d219d9b	0.039456945
37	0xbca9e724	-0.0207401
38	0x3c029f0b	0.007972489
39	0x3c3946b2	0.011308359
40	0xbb2bee0d	-0.0026234419
41	0xbb891a5b	-0.00418405
42	0xbacecbbb	-0.0015777269
43	0x3c8021bb	0.015641084
44	0x3ba0fdcb	0.004913067
45	0x3c034145	0.008011167
46	0x3cb55afd	0.022138113
47	0xbd081356	-0.033221565
48	0x3987ea4d	0.00025923774
49	0xbb03d2d6	-0.0020114682
50	0xbd110df0	-0.035413682
51	0xbb9e3fb2	-0.0048293704
52	0xbbcc5f47	-0.006236944
53	0xbc9f4187	-0.019440426
54	0xbb399f00	-0.002832353
55	0xbc918f30	-0.017768472
56	0xbc4a95b9	-0.012364798
57	0x3c5d8242	0.013519825
58	0xbc976937	-0.018482788
59	0xbce226fd	-0.027606482
60	0x3c66e54b	0.014092754
61	0x3c8ee1ef	0.017441718
62	0xbb0ad59d	-0.0021184452
63	0xbca3d652	-0.019999657
64	0xbd2674e5	-0.040638823
65	0xbc84b393	-0.016198909
66	0x3c9f763d	0.01946556
67	0xbafb7234	-0.0019183815
68	0x3ce7ff01	0.028319838
69	0xbc5f82bc	-0.013642009
70	0xbcad8904	-0.021183498
71	0xbd1fcc64	-0.03901328
72	0xbd4354e1	-0.04768837
73	0xbd64cf0f	-0.05586153
74	0xbd197747	-0.037467267
75	0x3ce9ff01	0.028563978
76	0x3c65728f	0.014004364
77	0xbb447de4	-0.0029982263
78	0xba5efc8f	-0.0008506262
79	0x3caa3616	0.020777743
80	0x3c957e39	0.018248664
81	0xbc96cd3c	-0.01840841
82	0xbc17be54	-0.009261686
83	0xbcaa9d45	-0.020826945
84	0xbc0ad22a	-0.008472959
85	0x3cb38d18	0.021917865
86	0xbae52670	-0.0017482769
87	0xbc1231c0	-0.008922994
88	0xbcabeda5	-0.020987341
89	0xbd05571f	-0.03255379
90	0x3cee8e2f	0.029120533
91	0xbc9219e1	-0.017834606
92	0xbc322b2b	-0.01087455
93	0x3caef6a5	0.021357844
94	0x3d004158	0.031312317
95	0xbc0d8d2a	-0.008639613
96	0x3cb2f9bd	0.0218476
97	0x3d52cfd4	0.05146773
98	0x3d0b08dd	0.033944
99	0xbc199959	-0.00937494
100	0x3cb87365	0.022515962
101	0xbc6fc0bb	-0.014633353
102	0xbb4b8a25	-0.0031057682
103	0x3be29a78	0.0069153868
104	0xbc80595f	-0.015667615
105	0xbce9da01	-0.028546335
106	0xbc2b3378	-0.010449283
107	0x3ca681f3	0.020325636
108	0x3c672d66	0.014109945
109	0x3c1a28a4	0.009409104
110	0xbb8be62e	-0.004269383
111	0x3bfa7fe3	0.00764464
112	0xbafa7893	-0.001910942
113	0xbb9d5e0b	-0.0048024706
114	0xbc9eb441	-0.019373061
115	0xbc97f011	-0.01854709
116	0xbc5ee81c	-0.013605144
117	0x3c7a9919	0.01529529
118	0x3c4cdbe2	0.012503596
119	0x3c9e5ff3	0.019332862
120	0xbd70d585	-0.058797378
121	0x39f152ca	0.00046028785
122	0xbc4983d4	-0.012299497
123	0xbd7422e9	-0.059603605
124	0xbc7169c6	-0.014734691
125	0x3c1fc735	0.0097520845
126	0xbb42e19e	-0.002973653
127	0xbbbae966	-0.005704093
128	0xbb46525b	-0.003026149
129	0x3bd7b687	0.0065830383
130	0xbc2b35a1	-0.010449798
131	0xbc25fc74	-0.01013099
132	0xbc94d9cb	-0.018170258
133	0x3cd20739	0.02563821
134	0x3c15e126	0.009147918
135	0xbcc4dcfe	-0.024031159
136	0xbcdb3df0	-0.026762933
137	0x3c583d2c	0.013198178
138	0x3b679692	0.003533755
139	0xbcdd9e27	-0.027052952
140	0xbd09a3c4	-0.033603445
141	0xbd179c9e	-0.037014596
142	0x3cbb1779	0.022838341
143	0x3cc0f010	0.02355197
144	0x3c9098db	0.017651012
145	0xbc492004	-0.0122756995
146	0xbc889683	-0.016673332
147	0xbc73cc19	-0.014880204
148	0xbd4e21c5	-0.050325174
149	0x3c9c2747	0.019061698
150	0x3c975440	0.01847279
151	0xbc3f26e7	-0.01166699
152	0xbc9865d9	-0.018603252
153	0x3c7e5f10	0.015525594
154	0xbc27db5b	-0.0102451695
155	0x3bda9745	0.0066708648
156	0xbce19bd0	-0.027540118
157	0x3d0f2d24	0.03495516
158	0xbc2eb2b9	-0.010662728
159	0xbd56699d	-0.052346814
160	0x3c670b34	0.014101792
161	0x3cd3dedb	0.025863102
162	0xbc290d2f	-0.010318085
163	0x3d1d95ee	0.038473062
164	0x3cfb5f8b	0.030685207
165	0x3c4c719b	0.0124782575
166	0xba9fd301	-0.0012193621
167	0x3ca07a0d	0.019589448
168	0x3b2acd4e	0.0026062313
169	0x3c804a88	0.01566054
170	0xbbdc073b	-0.006714729
171	0xbb4b15ad	-0.0030988262
172	0x3a26c133	0.00063611864
173	0x3caa82a0	0.02081424
174	0xbbf3a427	-0.00743534
175	0xbc912c3d	-0.01772129
176	0x3cd1fa0e	0.02563193
177	0xbc7348c3	-0.014848891
178	0x3d0c1ef4	0.034209207
179	0xbb67389b	-0.0035281542
180	0xbc5113d4	-0.012761075
181	0xbc838891	-0.01605633
182	0x3bd64ae1	0.006539688
183	0xba513fc2	-0.0007982218
184	0xbc5edc18	-0.013602279
185	0x3ca9068a	0.020633
186	0x3b86dfc4	0.0041160304
187	0x3b99d19a	0.004694176
188	0x3c808bdf	0.015691696
189	0x3cc71140	0.024300218
190	0x3cb1d0f2	0.021706078
191	0xb988ed2f	-0.00026116657
192	0x3b5f1282	0.003403813
193	0x3d029b8a	0.031886615
194	0xbce7b0ac	-0.028282486
195	0x3cb270ee	0.021782365
196	0x3ca58730	0.020206064
197	0xbc485464	-0.012227152
198	0xbd03e379	-0.032199357
199	0x3be0cd53	0.006860414
200	0xbbc97278	-0.006147679
201	0x3c3cad4f	0.011515929
202	0xbd257304	-0.04039289
203	0x3ca37b32	0.019956205
204	0x3d0795c1	0.0331018
205	0xbc955ddc	-0.018233232
206	0xbca2c52f	-0.019869415
207	0x3d0f9505	0.035054225
208	0x3c766114	0.015037794
209	0x3b51447d	0.0031931691
210	0x3cad8044	0.021179326
211	0xbbd2a235	-0.006428028
212	0xbc4250a6	-0.011860048
213	0x3d02b309	0.031909022
214	0xbbedb434	-0.007254148
215	0x3c3c7d67	0.011504508
216	0xbc42e899	-0.011896276
217	0xbd1fd08a	-0.039017238
218	0x3c938070	0.01800558
219	0x3ca556de	0.020183023
220	0xbc8ef4a6	-0.017450642
221	0x3d3816e7	0.044943716
222	0x3d10e447	0.035373952
223	0xbc45c901	-0.012071849
224	0xbb50c5af	-0.003185611
225	0x3c51d889	0.012807974
226	0x3c05c190	0.008163825
227	0xbc800d32	-0.015631292
228	0x3b8ee972	0.004361325
229	0x3bc9c8d8	0.0061579756
230	0xbd444bb3	-0.047923755
231	0x39a18530	0.00030807545
232	0x3b6eaee5	0.0036420163
233	0xbc9a2fcc	-0.01882162
234	0xbb9eef50	-0.0048503056
235	0x3c82e306	0.015977394
236	0xbc7afcd8	-0.015319072
237	0xbd12f931	-0.03588218
238	0xbcff3770	-0.031154364
239	0xbb5bdb7d	-0.0033547573
240	0x3cd72c33	0.026266193
241	0x3cfcdcbb	0.030866971
242	0xbcf72f5b	-0.030173948
243	0xbc633d12	-0.013869541
244	0xbb620bd0	-0.0034491904
245	0x3c34279b	0.010995771
246	0xbc379453	-0.011204797
247	0x3c09a368	0.0084007755
248	0xbcbe5bc7	-0.023237122
249	0xbce82614	-0.02833847
250	0xbc9ca56b	-0.019121846
251	0x3b8316b8	0.004000511
252	0x3b783ddd	0.003787867
253	0xbc56ba6f	-0.013105973
254	0xbc83a87a	-0.016071547
255	0x3c3c460d	0.011491311

model.layers.0.mlp.up_proj.weight f4 [64, 32]
0	0xbd6feebb	-0.05857728
1	0xbce9a9d8	-0.02852337
2	0xbba8fd61	-0.0051571582
3	0xbb3a7a10	-0.0028454103
4	0xbc98f239	-0.018670188
5	0x3ca3691b	0.01994758
6	0xbbd99b75	-0.0066408464
7	0x3ce7948c	0.028269075
8	0xbc221420	-0.0098924935
9	0xbceb60a3	-0.028732603
10	0xbc15aeba	-0.009135896
11	0x3bf4753b	0.007460264
12	0xbcd403dd	-0.025880748
13	0x3d6fd6e1	0.058554534
14	0xbd1a37a3	-0.037650716
15	0x3bb61a0b	0.005557304
16	0x3d201872	0.039085813
17	0x3c08672f	0.008325382
18	0xbc59bcb5	-0.01328962
19	0xbd2ebf58	-0.04266295
20	0xbb3769b8	-0.0027986597
21	0x3ce85669	0.028361516
22	0xbcd0d35b	-0.025491407
23	0x3c4f92f9	0.012669318
24	0x3cf1134b	0.029428145
25	0x3c8b92e6	0.01703782
26	0x3c9dafa2	0.019248787
27	0xb948d9e5	-0.00019154658
28	0x3c3dd929	0.01158742
29	0xbc9f84fb	-0.01947259
30	0x3c050c17	0.008120558
31	0xbb5dd118	-0.0033846553
32	0xbcfdc8cc	-0.030979536
33	0x3b4b93ef	0.0031063517
34	0xbd405659	-0.046957348
35	0xbbbfe089	-0.005855624
36	0xbc73eedb	-0.014888491
37	0xbb5937aa	-0.003314475
38	0xbc937074	-0.017997958
39	0x3c937ddd	0.018004352
40	0x39d42580	0.0004046373
41	0x3a402162	0.0007329193
42	0xbc10ce56	-0.008838257
43	0x3c3ffc29	0.0117178345
44	0x3ca91d98	0.020643994
45	0xb9a6b146	-0.00031794066
46	0xbc84d5bb	-0.016215196
47	0xbc0c5ca9	-0.008567014
48	0x3be5cf2a	0.0070132213
49	0xbd0b77e2	-0.034049876
50	0xbad60e44	-0.0016331156
51	0xbac0c497	-0.0014707026
52	0xbb9bb047	-0.0047512385
53	0x3ce52a10	0.027974159
54	0xbb672404	-0.003526927
55	0xbc2afc69	-0.010436156
56	0xbbc6fea5	-0.0060728365
57	0xbba65ba9	-0.0050768447
58	0xbd0814a3	-0.033222806
59	0x3d27e43c	0.040989146
60	0x3c8a0a3f	0.016850589
61	0xba75e4ae	-0.0009380084
62	0xbc81fbf6	-0.015867215
63	0xbcbd7b09	-0.023129957
64	0xbafa7513	-0.0019108377
65	0xbc84d9f2	-0.016217206
66	0xbc21cf58	-0.009876095
67	0x3cbb3d24	0.022856303
68	0xbbf0edcb	-0.007352566
69	0xba84d22f	-0.001013344
70	0x3cae5acb	0.021283528
71	0xbc2ef8e4	-0.010679457
72	0x3aae6bf4	0.0013307319
73	0xbbf400c5	-0.007446381
74	0x3d0e586d	0.0347523
75	0xbd09351b	-0.03349791
76	0xbab55a78	-0.0013836166
77	0xbb133895	-0.0022464145
78	0xbd07321b	-0.03300677
79	0x3bc58080	0.0060272813
80	0x3ce990f3	0.0285115
81	0x3cb26ee1	0.021781387
82	0x3ca307bb	0.019901147
83	0x3a1793b0	0.00057822
84	0xbcf776bd	-0.030207986
85	0x3c0aa222	0.008461507
86	0xbcd72b46	-0.026265752
87	0xbb05e1c1	-0.002042875
88	0x3c99b989	0.018765228
89	0xbc5b6510	-0.013390794
90	0xbc63be2b	-0.01390032
91	0xbcdd0886	-0.026981603
92	0xbc841034	-0.016121008
93	0xbcc73cd5	-0.024321
94	0x3c1dc869	0.009630301
95	0x3c856025	0.016281197
96	0xbd70aee3	-0.058760535
97	0x3bd79884	0.0065794606
98	0xbd05bc5f	-0.032650348
99	0x3cc2e0d4	0.023788847
100	0x3b3589ce	0.0027700546
101	0x3c40c9b3	0.011766839
102	0x3c134404	0.008988384
103	0x3bb20d4e	0.005433715
104	0xb900832a	-0.00012255894
105	0x3c93994b	0.018017432
106	0x3c4386a7	0.011933959
107	0x3c3e5f93	0.011619466
108	0x3d0d71f3	0.0345325
109	0xbcd11946	-0.025524747
110	0x3baba2e2	0.005237923
111	0xbc7485ef	-0.01492451
112	0xbc9095a3	-0.017649477
113	0x3a2974bb	0.00064642326
114	0x3cb6150b	0.022226831
115	0xbcc06b86	-0.023488771
116	0xbbc90f4d	-0.006135857
117	0xbcbb0e41	-0.022833945
118	0xbd01cf8c	-0.031692073
119	0x3b306382	0.002691478
120	0x3c116328	0.008873738
121	0x3d1b85e0	0.03796947
122	0xbc9b0fbe	-0.018928405
123	0xbc5295b3	-0.012853074
124	0xbc896d35	-0.016775707
125	0x3cbb5a1d	0.022870118
126	0xbcb3a8b5	-0.021931032
127	0xbc7361b9	-0.014854842
128	0xbba7f8b4	-0.0051260833
129	0x3bb73a01	0.0055916314
130	0x3c1a92ab	0.009434382
131	0xbb8f2b8e	-0.004369206
132	0xbc371d97	-0.011176488
133	0x3c7dbbea	0.015486697
134	0x3c01751d	0.007901457
135	0xbc814880	-0.015781641
136	0x3d0a1560	0.03371179
137	0x3cfb2c75	0.030660847
138	0xbacbcbd7	-0.001554842
139	0xbc977aa0	-0.01849109
140	0x3ce927c7	0.02846135
141	0x3ce786b0	0.028262466
142	0x3b3aee8a	0.0028523528
143	0xbc501105	-0.01269937
144	0x3cecc2c9	0.028901475
145	0xbc949575	-0.018137673
146	0x3cd7d63b	0.02634727
147	0xbc0e392e	-0.008680625
148	0xbbc3651e	-0.005962982
149	0x3b8e78f1	0.0043479134
150	0x3c0969cf	0.008387043
151	0xbd555669	-0.05208436
152	0x3bd69470	0.006548457
153	0xbbc11c06	-0.005893233
154	0xbca0c1ac	-0.0196236
155	0xbc0575a2	-0.008145722
156	0xbd186af0	-0.03721136
157	0xbb9167ab	-0.004437407
158	0xbc964b10	-0.01834634
159	0x3cb22bde	0.021749433
160	0xbbd410d9	-0.006471735
161	0x3cac0a9e	0.021001156
162	0xbc0b3ba4	-0.008498106
163	0xbcb3566a	-0.021891791
164	0x3d417c17	0.047237482
165	0xbc68ca59	-0.0142084
166	0xbd0c15ea	-0.034200586
167	0xbd071df8	-0.032987565
168	0xbbc21bfd	-0.0059237466
169	0x3c832056	0.01600663
170	0xbd024833	-0.031807136
171	0x3cf5302e	0.0299302
172	0x3d044338	0.032290667
173	0x3da19c16	0.07891099
174	0x3d0b9a66	0.034082793
175	0x3c8a30ab	0.01686891
176	0x3c08abc9	0.008341738
177	0x3d26e68d	0.040747214
178	0xbbf73bcb	-0.0075449697
179	0x3b59bc02	0.0033223634
180	0x3c8ddaa5	0.017316172
181	0xbd367b58	-0.044551224
182	0xbc85e21d	-0.01634317
183	0xbaa6a6b4	-0.0012714476
184	0xbc4519f8	-0.012030117
185	0x3c628ec1	0.0138279805
186	0x3d0c4d1f	0.034253236
187	0x3c708d9e	0.014682202
188	0xb9a17975	-0.00030798806
189	0x3c41c59c	0.011826899
190	0xbc9822bc	-0.01857125
191	0x3bee89f7	0.0072796303
192	0xbd196730	-0.037451923
193	0x3ca6795e	0.020321544
194	0xbc9ffd76	-0.01953004
195	0x3c361b49	0.011114904
196	0x3a6d387b	0.0009049249
197	0x3cdf4e65	0.027259061
198	0xbcc79150	-0.024361283
199	0xbba5c61c	-0.005059017
200	0x3c882fe5	0.0166244
201	0x3c7214a1	0.014775426
202	0xbca2a862	-0.019855682
203	0x3c5791a5	0.013157283
204	0x3cd98d64	0.026556678
205	0xbc5e2872	-0.013559448
206	0x3ca5082a	0.020145494
207	0xbcdce66c	-0.026965342
208	0xbc22f642	-0.009946408
209	0x3d31dd7d	0.04342412
210	0x39bbf762	0.00035851734
211	0xbcbd011b	-0.023071816
212	0x3c8f1643	0.01746667
213	0x3c1f82cc	0.009735774
214	0x3cab9dd6	0.020949285
215	0xbc06c37b	-0.008225317
216	0xb9cabda5	-0.0003866974
217	0xbc9ec401	-0.019380571
218	0x3be3c0f3	0.0069504916
219	0xba83d9d0	-0.001005942
220	0x3c3ffa61	0.01171741
221	0xbcb23862	-0.021755401
222	0x3c900993	0.01758269
223	0x3bc2992b	0.005938669
224	0xbbf65697	-0.0075176465
225	0x3c55c624	0.013047729
226	0xbb9d1407	-0.004793647
227	0x3c801842	0.015636567
228	0xbc4c1c27	-0.012457884
229	0xbbdf0130	-0.0068055615
230	0xbc071be8	-0.008246399
231	0xbc73a0f0	-0.014869913
232	0x3c09a009	0.008399972
233	0x3c6c0e82	0.014407756
234	0xbc8f6280	-0.017503023
235	0x3d48b66e	0.049002104
236	0xbaebbc75	-0.0017985242
237	0xbd123176	-0.0356917
238	0xbcd4c8e6	-0.025974702
239	0xbcc21f20	-0.023696482
240	0x3b6c3c8c	0.003604683
241	0xbc761a61	-0.015020938
242	0xbc12e16a	-0.008964876
243	0x3c48adea	0.012248496
244	0x3c3c6153	0.011497813
245	0xbc68b094	-0.014202256
246	0xbc908697	-0.017642302
247	0x3cbc343d	0.022974128
248	0xbbcfd065	-0.0063419812
249	0xbd191690	-0.037375033
250	0x3cea0c19	0.028570222
251	0xbb5b9d20	-0.0033510402
252	0x3a95bf9f	0.0011424905
253	0xbc8dcddd	-0.017310077
254	0xbc142405	-0.009041791
255	0x3b632a07	0.0034662501

model.layers.0.post_attention_layernorm.weight f4 [32]
0	0x3f820fae	1.0161035
1	0x3f7c3239	0.98514134
2	0x3f7cc22c	0.9873378
3	0x3f7f4b41	0.99724203
4	0x3f816b13	1.0110801
5	0x3f7fc3cc	0.9990814
6	0x3f7c8826	0.98645246
7	0x3f80fe78	1.0077658
8	0x3f7d1f1a	0.9887558
9	0x3f81a471	1.0128309
10	0x3f81286e	1.0090463
11	0x3f81ed47	1.0150536
12	0x3f819ae9	1.01254
13	0x3f8166e7	1.0109528
14	0x3f80ea7f	1.0071563
15	0x3f7f3519	0.99690396
16	0x3f7fbdbd	0.9989889
17	0x3f80049f	1.000141
18	0x3f8040d4	1.0019784
19	0x3f7e9fa9	0.9946237
20	0x3f7e2134	0.99269414
21	0x3f81d14b	1.0141996
22	0x3f7d009a	0.9882904
23	0x3f8161dc	1.0107989
24	0x3f829b2f	1.0203608
25	0x3f7d65ab	0.9898326
26	0x3f81c7bf	1.0139083
27	0x3f7fb549	0.99885994
28	0x3f81e06b	1.0146612
29	0x3f7e8ff9	0.99438435
30	0x3f81a894	1.0129571
31	0x3f7e3dba	0.9931294

model.layers.0.self_attn.k_proj.weight f4 [32, 32]
0	0x3cc6486b	0.024204453
1	0xbc4823c5	-0.012215559
2	0xbc878349	-0.016542094
3	0xbc086e96	-0.008327147
4	0xbc9472cc	-0.018121146
5	0x3d20efa8	0.039291054
6	0xbbb9d30e	-0.0056709116
7	0x3ca68e05	0.020331392
8	0x3bd32913	0.0064441054
9	0xbc383525	-0.011243139
10	0x3ca68670	0.020327777
11	0x3c3bfb73	0.011473524
12	0x3bf8fd47	0.0075985524
13	0xb9a1691b	-0.00030786623
14	0x3bb4c861	0.005517051
15	0x3c38eb5e	0.011286585
16	0x3d0e02a2	0.03467048
17	0xbbb4efc5	-0.005521747
18	0xbc137c99	-0.009001874
19	0xbcbb9895	-0.022899905
20	0xbb1b14ee	-0.0023663598
21	0x3bea52cb	0.007150983
22	0x3d139fc2	0.03604103
23	0xbcb345e0	-0.021883905
24	0xbd2a762d	-0.041616607
25	0xbc3148a7	-0.010820544
26	0xbbaee8f7	-0.00533783
27	0xbc6d3cae	-0.014479799
28	0x3d3a9ad9	0.04555783
29	0xbd6ad312	-0.0573302
30	0xbcb7eab0	-0.022450775
31	0xbc30b0f7	-0.010784379
32	0x3c12f0b3	0.00896852
33	0x3c80704e	0.015678551
34	0x3a844f8a	0.0010094505
35	0x3c4069a0	0.011743933
36	0xbbd55144	-0.0065099318
37	0xbd09e352	-0.033664055
38	0x38960089	7.152657e-05
39	0xbcb48c67	-0.022039605
40	0xbd3b4c98	-0.045727342
41	0xbc8d4237	-0.017243488
42	0xbc08661b	-0.008325125
43	0xba10fb3b	-0.00055306003
44	0x3858622e	5.158985e-05
45	0x3b11c1c2	0.0022240733
46	0x3d0095f9	0.031393025
47	0x3bb3a820	0.0054826885
48	0x3baacf13	0.0052126735
49	0x3ced07d7	0.028934402
50	0x3cbe0664	0.023196407
51	0xbc8894b2	-0.016672466
52	0x3c0103c0	0.007874429
53	0xbc81bd86	-0.015837442
54	0x3a67f3eb	0.00088482973
55	0x3cfa292f	0.030537216
56	0x3b26f63c	0.0025476357
57	0xbbe669e9	-0.0070316684
58	0xbcd90b3c	-0.026494615
59	0x3bffe6f7	0.0078095156
60	0xbaec3b47	-0.0018023037
61	0x3c880e28	0.016608313
62	0x3c723f60	0.014785618
63	0x3c7da0f9	0.015480273
64	0x3cc1118f	0.023567943
65	0xbb3b16ab	-0.0028547447
66	0x3ce0d3a1	0.027444663
67	0xbd083689	-0.033255134
68	0x3cbd37cb	0.023097893
69	0xbcafefce	-0.021476652
70	0xbd109705	-0.035300273
71	0xbb90d28a	-0.0044196295
72	0xbbbb9bf4	-0.005725378
73	0x3c956adc	0.018239431
74	0xbc7dfbac	-0.015501898
75	0xbcc57f80	-0.024108648
76	0x3b290598	0.0025790688
77	0x3c1d75c7	0.0096106
78	0xbc88d9af	-0.016705362
79	0x3b248ba9	0.0025107658
80	0xbcc3ec78	-0.023916468
81	0x3b258b7e	0.0025260146
82	0xba20d024	-0.0006134531
83	0xbd4c70f5	-0.04991241
84	0x3c1bcf8c	0.009509932
85	0xbb7a14d9	-0.0038159399
86	0xbca14220	-0.019684851
87	0x3d19f3df	0.03758609
88	0x3c19692b	0.009363453
89	0xbc11eef6	-0.00890707
90	0xbc49beb8	-0.012313537
91	0x3baa6dfe	0.0052011004
92	0x3c8c9727	0.017161919
93	0x3b279c3e	0.0025575305
94	0x3c38987d	0.011266825
95	0xbc9bed06	-0.01903392
96	0xbb8c76db	-0.0042866296
97	0x3ca93b42	0.02065814
98	0x3b1942ab	0.0023385684
99	0x3c464793	0.012102026
100	0xbbba2150	-0.0056802407
101	0x3cd57d12	0.026060615
102	0xbc55f2b5	-0.013058354
103	0xbc83c287	-0.016083969
104	0xbcd7cd30	-0.026342958
105	0x3bc29c8b	0.0059390715
106	0xbb31c1b2	-0.0027123508
107	0x3c89e736	0.016833883
108	0xbc1b3757	-0.009473643
109	0xbd0126ce	-0.031531148
110	0x3a5e7e61	0.000848746
111	0xbc92ad0c	-0.01790478
112	0xbc567105	-0.013088469
113	0x3cad04c2	0.021120433
114	0x3c143be2	0.00904748
115	0xbc17265b	-0.009225453
116	0xba4cb5d4	-0.0007809077
117	0xbcc3da44	-0.023907788
118	0xbce0847e	-0.027406927
119	0x3c344f5b	0.011005248
120	0x3cbc534e	0.022988942
121	0x3c0290e3	0.007969114
122	0xbcac59db	-0.02103894
123	0xbb271eef	-0.0025500616
124	0xbafe3cee	-0.001939682
125	0xbaa2ff9b	-0.0012435796
126	0xbcda78c5	-0.026668916
127	0x3c17b407	0.00925923
128	0xbb82b150	-0.0039884225
129	0xbcb82655	-0.022479216
130	0xbd17c4bd	-0.03705286
131	0xbcc7e4e5	-0.024401138
132	0xbc80bd0c	-0.015715145
133	0x3b9428e8	0.004521478
134	0x3c7c9ccf	0.015418245
135	0xbcffdae5	-0.031232307
136	0x3c5a2917	0.013315461
137	0x3c81e6bf	0.015857099
138	0xbc790ec7	-0.015201277
139	0xbc7c44e0	-0.01539728
140	0x3d186cdc	0.03721319
141	0xbb9e9b50	-0.004840292
142	0x3c433992	0.011915581
143	0xbbe81b57	-0.0070833373
144	0xbbc2450a	-0.0059286403
145	0xbcf32ec3	-0.029685384
146	0xbb94015f	-0.004516765
147	0xbcc1bd9e	-0.023649987
148	0xbc9d957d	-0.01923632
149	0x3c1ecaeb	0.009691934
150	0xbc35a213	-0.011086005
151	0x3d30a61c	0.043127164
152	0xbbad6458	-0.005291503
153	0x3c847326	0.016168188
154	0x3bf13c8e	0.007361955
155	0xbcefe462	-0.029283706
156	0xbd383f30	-0.044982135
157	0xbd09d559	-0.03365073
158	0xbb847b50	-0.0040430203
159	0x3cafc6d0	0.021457106
160	0xbc550122	-0.013000758
161	0x3b479ec5	0.0030459624
162	0x3b5869fe	0.003302216
163	0x3d58b47c	0.0529065
164	0xbc34fa9b	-0.011046077
165	0xbc2bbf0d	-0.010482562
166	0xbaa02932	-0.0012219308
167	0x3b280d40	0.0025642663
168	0xbd3d4b3d	-0.04621433
169	0xb9f4ea26	-0.0004671376
170	0xbc46c733	-0.012132454
171	0xbb4a6097	-0.0030880326
172	0xbca195d0	-0.019724756
173	0x3c838ed1	0.016059311
174	0x3cad5c0e	0.02116206
175	0x3c3349f0	0.010942921
176	0x3c8ef647	0.017451419
177	0xbc920326	-0.017823767
178	0xbc8ecee6	-0.017432641
179	0xbc4a24d7	-0.012337885
180	0x3c658d00	0.014010668
181	0x3c9a38ce	0.018825915
182	0x3c943187	0.018090023
183	0x3b5b3926	0.0033450811
184	0x3bb9bbfc	0.0056681614
185	0x3c8722df	0.01649612
186	0xbc63ea2f	-0.013910814
187	0xbbeb3473	-0.0071778833
188	0x3c014cc3	0.007891837
189	0x3d007792	0.03136403
190	0x3c4d41ea	0.012527922
191	0xba28ba60	-0.00064364634
192	0xbc22ceff	-0.009937047
193	0x3b3a6926	0.002844402
194	0xbd5ff725	-0.054679055
195	0x3c6a7fae	0.014312668
196	0x3c1f6d68	0.009730674
197	0xbc8bb881	-0.017055752
198	0x3bdcb3fc	0.006735323
199	0x3aa28030	0.0012397822
200	0xbca8e310	-0.020616084
201	0x3ce08619	0.027407693
202	0x3b648ecb	0.003487515
203	0xbcaab0db	-0.020836284
204	0x3d31cc82	0.043407924
205	0xba6d0db2	-0.0009042873
206	0xbc5c3f29	-0.013442793
207	0x3c74f802	0.014951708
208	0x3c92060e	0.017825153
209	0x3bce2a1c	0.006291641
210	0xbd6e270a	-0.0581427
211	0xba8fb379	-0.0010963521
212	0xbac241f9	-0.0014820687
213	0xbb0bdc86	-0.002134116
214	0x3c4c2613	0.0124602495
215	0x3ba37c48	0.0049891807
216	0xbb9ecf82	-0.004846514
217	0xbcef98e5	-0.02924771
218	0x3c5d9d22	0.013526233
219	0xbba40c66	-0.005006361
220	0x3b53480e	0.0032238993
221	0x3cbe12a6	0.023202252
222	0x3c8b58da	0.017010141
223	0x3b79bfc9	0.0038108698
224	0xbc92e1c3	-0.017929917
225	0xbc8b0c86	-0.016973745
226	0xbcd4df92	-0.025985513
227	0xbc35d03e	-0.011097012
228	0x3d11a958	0.03556189
229	0xbafafaa5	-0.0019148184
230	0xba23edae	-0.00062533736
231	0x3ab307e9	0.0013658974
232	0x3c3cf221	0.011532337
233	0x3cc31093	0.023811614
234	0xbb88f583	-0.004179658
235	0x3c840809	0.016117113
236	0x3d7e49dd	0.06208216
237	0xbd4e08e7	-0.05030146
238	0xbbc807aa	-0.0061044293
239	0xbabebe2f	-0.0014552529
240	0x3a33b3b5	0.00068550865
241	0x3b80aa50	0.003926553
242	0xbc5733b5	-0.0131348865
243	0x3d80d213	0.062900685
244	0xbbc5fcd3	-0.006042102
245	0x3b9399f2	0.0045044357
246	0xbb9122a0	-0.0044291764
247	0x3c2edf7c	0.0106734
248	0x3c2e012e	0.010620398
249	0x3bcaff8d	0.006195015
250	0x3ce7c7e0	0.02829355
251	0xbb37832b	-0.0028001766
252	0x3ca5766f	0.020198075
253	0xbcf137bb	-0.02944552
254	0x3ca6fc3e	0.02038395
255	0x3c31111e	0.010807304
